lee_dl/models/model.pth (torch, 27776 bytes, 3 tensors)

weight f4 [64, 93]
0.063928954 -0.016251372 -0.0399507 0.0061978777 0.009732991 0.060075615 0.051393107 -0.034332488
0.031128792 -0.017008027 0.05891289 0.05961184 -0.09238889 -0.038398556 0.028863674 -0.008254336
0.054834608 -0.0104974015 0.03581645 0.005892691 0.10839037 0.17725097 0.11007055 0.049120445
-0.09105845 0.043507706 -0.03853764 0.03923112 -0.018079892 -0.05509563 0.04131019 0.10757646
-0.095852986 -0.103513606 0.0121901035 -0.039692316 0.16048744 -0.010086801 -0.023744475 0.018730849
0.025312325 0.023673723 -0.08011243 -0.1799136 -0.016139813 -0.070465535 -0.09530181 0.042926095
-0.088204384 -0.0049628923 -0.07149603 -0.09011978 -0.04561504 0.09335659 0.08133657 -0.048257288
0.08239939 0.16996418 0.053821497 -0.06092875 -0.084207274 -0.1719146 0.026535565 -0.08791778
0.050069418 -0.01369281 0.101944864 -0.01858446 0.11906706 -0.14692532 0.024164146 -0.13907756
0.1468729 0.12787154 0.028383078 0.1801147 0.116206795 -0.11769519 -0.0004126501 -0.05349985
0.013378066 -0.11195345 -0.10076311 -0.05947926 -0.016064925 0.05181249 -0.016047541 0.016279463
0.059788782 -0.11841625 0.009620602 0.10638789 0.24653134 0.017581215 -0.17381573 0.04452792
0.012684832 -0.023598757 -0.007969555 0.11130013 -0.10169757 -0.0377923 -0.04469652 0.032451928
-0.009267187 0.038536314 0.18842393 0.035386525 0.03875791 -0.08181982 -0.04396564 -0.07680478
-0.015296935 0.13047828 0.19622484 0.017357353 0.16563116 0.10190765 0.05061432 -0.068618715
0.13724951 0.07304539 0.0053974483 -0.020436618 0.044355538 -0.27957526 -0.04931146 0.12982145
0.07456515 0.086250074 -0.12617278 -0.010297316 0.0375346 -0.027125802 0.037047863 0.0645746
-0.046895225 -0.044417668 0.131653 0.04032191 0.07675391 0.02180255 -0.05316566 0.026407845
0.09716967 0.035179798 -0.057821732 -0.07733132 0.017337572 -0.083243676 -0.018375348 0.12633598
-0.085140064 -0.08708607 0.003884148 0.06321987 0.031675808 0.030770617 -0.057875622 -0.0073808716
-0.14871305 0.058947906 -0.05891227 -0.06359017 -0.004795585 -0.026499165 -0.12956588 -0.04951713
0.52965176 -0.026482848 0.08633026 0.03210883 -0.01811827 0.022653764 -0.16640966 -0.02735836
-0.19404238 0.06408713 -0.010275432 0.11549652 0.06286024 0.035377983 0.10738884 0.032586787
0.018174957 -0.1960185 0.0061896653 -0.16679864 -0.051832315 0.016697632 -0.15771867 0.16009852
0.054816715 0.00856603 0.07643113 0.039678697 0.060814887 -0.040249817 0.028965753 0.01662082
0.031156609 0.18787342 0.030107873 -0.19480798 -0.012980564 0.06672468 0.08049966 0.20100176
0.13109079 0.07097291 -0.029864699 0.020523638 -0.28385106 0.09215682 0.09233847 0.047924176
0.021259818 0.1679881 -0.083314076 0.028786752 -0.011888099 -0.087262675 0.021121321 -0.12349308
-0.068816416 0.096657924 0.00900879 0.033265505 0.031668168 -0.12243602 -0.092584655 0.065090485
-0.007973197 0.054556914 -0.11574132 0.0021799274 -0.14389187 -0.042303544 0.115487024 0.013308178
-0.029787881 -0.06405189 -0.11289334 -0.053529643 0.04193363 -0.02670078 -0.05152037 -0.060288925
0.025725137 -0.0015200573 0.13700132 0.12125778 -0.19802493 -0.0714139 -0.14706449 0.11558954
00000000: 2fed 823d 9921 85bc 58a3 23bd 9117 cb3b
00000010: 2077 1f3c d911 763d 9481 523d 39a0 0cbd
00000020: cf01 ff3c 6b54 8bbc a44e 713d 8b2b 743d
00000030: 6336 bdbd ce47 1dbd 8373 ec3c 323d 07bc
00000040: 419a 603d 4bfd 2bbc 45b4 123d 7a17 c13b
00000050: c5fb dd3d 4781 353e ab6c e13d 8532 493d
00000060: da7c babd 2335 323d a5d9 1dbd d0b0 203d
00000070: 481c 94bc f5ab 61bd e034 293d 0c51 dc3d
00000080: 924e c4bd f1fe d3bd 00b9 473c 6994 22bd
00000090: d256 243e 1c43 25bc c683 c2bc 7071 993c
000000a0: cb5b cf3c 65ef c13c fc11 a4bd 453b 38be
000000b0: a437 84bc 3c50 90bd 982d c3bd 46d3 2f3d
000000c0: 80a4 b4bd c29f a2bb 836c 92bd b890 b8bd
000000d0: d6d6 3abd bd31 bf3d ca93 a63d 6fa9 45bd
000000e0: 03c1 a83d 170b 2e3e ee73 5c3d 6d90 79bd
000000f0: dd74 acbd 620a 30be 1d61 d93c 3d0e b4bd
00000100: 9715 4d3d cf57 60bc 78c8 d03d 703e 98bc
00000110: 6ed9 f33d 9773 16be e3f3 c53c 596a 0ebe
00000120: d965 163e c2f0 023e a183 e83c fd6f 383e
00000130: d4fd ed3d 2d0a f1bd f558 d8b9 a922 5bbd
00000140: ad2f 5b3c da47 e5bd e45c cebd 86a0 73bd
00000150: 979a 83bc 5539 543d 2276 83bc 825c 853c
00000160: 15e5 743d 3884 f2bd bb9f 1d3c e5e1 d93d
00000170: b672 7c3e 7b06 903c c0fc 31be e962 363d
00000180: 0bd4 4f3c 2e52 c1bc bd92 02bc 53f1 e33d
00000190: d146 d0bd 19cc 1abd b313 37bd 50ec 043d
000001a0: 66d5 17bc 41d8 1d3d 34f2 403e 76f1 103d
000001b0: 9dc0 1e3d 2691 a7bd 5115 34bd d34b 9dbd
000001c0: ff9f 7abc 199c 053e 2aef 483e 0231 8e3c
000001d0: 379b 293e f5b4 d03d f650 4f3d f887 8cbd
000001e0: 238b 0c3e d298 953d 14dd b03b b26a a7bc
000001f0: 27ae 353d 7d24 8fbe d0fa 49bd eaef 043e
00000200: 9db5 983d e1a3 b03d 7033 01be 13b6 28bc
00000210: e1bd 193d ee36 debc 80bf 173d b03f 843d
00000220: 3515 40bd 4def 35bd 0bd0 063e 9628 253d
00000230: 2731 9d3d 439b b23c 3cc4 59bd 4455 d83c
00000240: e400 c73d b118 103d 7bd6 6cbd e25f 9ebd
00000250: 8607 8e3c a97b aabd e687 96bc 385e 013e
00000260: ea5d aebd 2e5a b2bd 318d 7e3b 6b79 813d
00000270: 7ebe 013d a912 fc3c fd0e 6dbd 3ddb f1bb
00000280: 3c48 18be 5c73 713d fe4d 71bd 903b 82bd
00000290: 4824 9dbb c714 d9bc ebac 04be 79d2 4abd
000002a0: 4297 073f 8ff2 d8bc ebcd b03d 8c84 033d
000002b0: c46c 94bc 6394 b93c 4b67 2abe a41e e0bc
000002c0: 0cb3 46be 1d40 833d 495a 28bc 7189 ec3d
000002d0: dfbc 803d 81e8 103d aeee db3d b979 053d
000002e0: a6e3 943c 13b9 48be add2 ca3b 43cd 2abe
000002f0: 1f4e 54bd 79c9 883c 0181 21be def0 233e
00000300: 7e87 603d 8958 0c3c ed87 9c3d 2186 223d
00000310: 0819 793d fedc 24bd 9649 ed3c 6328 883c
00000320: 253c ff3c e461 403e c9a4 f63c be7b 47be
00000330: 6eac 54bc f3a6 883d 01dd a43d 68d3 4d3e
00000340: aa3c 063e 3f5a 913d d0a6 f4bc 3021 a83c
00000350: ed54 91be b7bc bc3d f41b bd3d 244c 443d
00000360: 1229 ae3c 1305 2c3e 92a0 aabd 32d2 eb3c
00000370: 4dc6 42bc c6b6 b2bd 9f06 ad3c f1e9 fcbd
00000380: 9fef 8cbd 97f4 c53d 9b99 133c 6941 083d
00000390: 7bb6 013d bcbf fabd 069d bdbd 294e 853d
000003a0: 03a2 02bc 1277 5f3d c909 edbd 1ddd 0e3b
000003b0: 6458 13be 7b46 2dbd 7684 ec3d 8b0a 5a3c
000003c0: b705 f4bc a32d 83bd a034 e7bd e641 5bbd
000003d0: 99c2 2b3d 98bb dabc 0607 53bd 85f1 76bd
000003e0: 86bd d23c a93c c7ba 134a 0c3e 0056 f83d
000003f0: 0cc7 4abe 7341 92bd 1398 16be 35ba ec3d

bias f4 [64]
0.3227688 0.8355241 0.866817 -0.19264933 -0.16516568 0.021017415 -0.009977396 -0.09933186
0.0951325 0.44510484 -0.17784111 0.95779955 0.05956261 1.4919248 -0.13624457 0.46674663
0.17452613 0.47466752 -0.24595428 0.020258598 0.3764074 0.3272622 -0.20807953 -0.20930919
0.014197184 0.33873332 0.26182464 0.60154265 -0.06774303 -0.07960693 0.28741264 0.8278769
0.2999792 0.64494157 0.27373797 -0.23264644 -0.074626304 0.17893635 0.39492387 0.5200937
-0.25826538 0.059096742 -0.10075749 -0.17696163 0.2669655 0.23341334 -0.00042075434 0.37644845
0.19556339 0.5543593 0.18897025 0.69921577 0.19513409 0.33705518 0.42591673 0.76141346
0.037935536 -0.05664817 0.55961436 0.73452914 0.13519235 0.29807985 -0.2590756 0.06809276
00000000: f441 a53e e8e4 553f b8e7 5d3f de45 45be
00000010: 3121 29be b72c ac3c 3b78 23bc 816e cbbd
00000020: d4d4 c23d c8e4 e33e fb1b 36be 5a32 753f
00000030: ecf7 733d 64f7 be3f b283 0bbe 6af9 ee3e
00000040: fab6 323e 9f07 f33e 70db 7bbe 5cf5 a53c
00000050: 79b8 c03e e98e a73e cd12 55be 2655 56be
00000060: 4e9b 683c 746e ad3e e10d 863e b3fe 193f
00000070: dcbc 8abd f508 a3bd c027 933e beef 533f
00000080: e096 993e e41a 253f 6227 8c3e de3a 6ebe
00000090: add5 98bd 173b 373e 7633 ca3e dc24 053f
000000a0: 5c3b 84be 6d0f 723d f159 cebd 6e35 35be
000000b0: b4af 883e e803 6f3e b198 dcb9 dabd c03e
000000c0: c541 483e 7eea 0d3f 6b81 413e ceff 323f
000000d0: 3bd1 473e 7f92 ac3e c211 da3e feeb 423f
000000e0: 4b62 1b3d e907 68bd e342 0f3f 1a0a 3c3f
000000f0: dd6f 0a3e ec9d 983e 8fa5 84be 3874 8b3d

weight f4 [1, 64]
0.221128 0.7551296 0.8446672 0.37822917 0.25564945 0.23728141 0.49457312 0.42974758
0.96043426 0.561138 0.84767056 0.7863792 0.79286903 1.218756 -0.63736916 0.31858504
0.5750783 0.79154277 0.514739 0.27955344 0.8056068 0.84831417 0.411563 0.46296227
0.4471228 0.65737313 0.33499292 0.56328166 0.34959948 0.34279633 0.49966684 0.7064417
0.32440475 0.7070774 0.33797145 0.5367054 0.29568398 0.668317 0.14562735 0.6088568
0.49749607 0.28429613 0.17990322 0.26510334 0.4372769 0.44174594 0.20240988 0.4120408
0.48643383 0.33415878 0.5097597 0.7762137 0.5824612 0.67812026 0.22970058 0.6933428
0.49261078 0.39016297 0.47512284 0.70166194 0.21372241 0.4326515 0.6275064 -0.35247812
00000000: 616f 623e 2c50 413f 1c3c 583f 41a7 c13e
00000010: 7ce4 823e e6f9 723e b038 fd3e e007 dc3e
00000020: 05df 753f bda6 0f3f f000 593f 2650 493f
00000030: 77f9 4a3f 3200 9c3f a02a 23bf 941d a33e
00000040: 5538 133f 8ca2 4a3f efc5 033f a121 8f3e
00000050: 3f3c 4e3f 1e2b 593f 63b8 d23e 6409 ed3e
00000060: 48ed e43e 9b49 283f 3184 ab3e 3a33 103f
00000070: b4fe b23e 0083 af3e 55d4 ff3e 5dd9 343f
00000080: 6118 a63e 0603 353f 980a ad3e 8665 093f
00000090: e463 973e d316 2b3f 561f 153e 0ade 1b3f
000000a0: ceb7 fe3e 438f 913e 8d38 383e a0bb 873e
000000b0: c2e2 df3e 862c e23e 8944 4f3e 03f7 d23e
000000c0: db0d f93e dc16 ab3e 9d7f 023f f1b5 463f
000000d0: 2d1c 153f 4a99 2d3f a136 6b3e ea7e 313f
000000e0: 7b37 fc3e 71c3 c73e 4d43 f33e 1ea0 333f
000000f0: 0cda 5a3e 7f84 dd3e 42a4 203f 0378 b4be
